app/src/main/assets/t3_detector_cnn.tflite (tflite, 110080 bytes, 10 tensors)

arith.constant f4 [32]
0	0xbcabcba2	-0.020971123
1	0xbd459138	-0.048234195
2	0x3d5533fe	0.052051537
3	0x3cdbbfe5	0.0268249
4	0xbd817cc3	-0.063226245
5	0xbd944e9d	-0.07241557
6	0xbd8ae528	-0.06781989
7	0x3d2f1413	0.042743754
8	0x3d0f2db9	0.034955714
9	0xbd818a8e	-0.06325255
10	0x3d4db7f6	0.050224267
11	0xbddb0ff4	-0.10696402
12	0xbbe86d79	-0.0070931283
13	0xbd508e8f	-0.050917204
14	0x3d90e000	0.070739746
15	0xbd45e8d8	-0.04831776
16	0xbd8b371d	-0.067976214
17	0xbc6cfa19	-0.014463925
18	0xbda76ba5	-0.081748284
19	0x3d334264	0.043764487
20	0x3c129b69	0.0089481855
21	0x3d282a7b	0.041056138
22	0xbda62387	-0.08112245
23	0xbda0e3de	-0.07855962
24	0xbbcbd74f	-0.006220735
25	0xbd6cdb42	-0.057826288
26	0x3d995a4e	0.074879274
27	0xbc1f4e41	-0.009723247
28	0xbd0a5dd3	-0.033780884
29	0x3cc25600	0.023722649
30	0xbdae420b	-0.085086904
31	0xbcad92cc	-0.021188162

arith.constant1 f4 [32, 3, 3, 1]
0	0xbe0cfd12	-0.13768414
1	0xbd1ed2f6	-0.038775407
2	0xbc6128c9	-0.013742634
3	0x3d7a2d94	0.061078623
4	0x3e0c4982	0.13699916
5	0xbd128c47	-0.03577831
6	0x3dce7836	0.10081522
7	0xbdb39fb8	-0.08770698
8	0xbd5208ac	-0.0512778
9	0xbbce3b48	-0.006293688
10	0xbe193928	-0.1496321
11	0xbdb9dccb	-0.09075316
12	0x3deb2776	0.11482136
13	0x3da529bc	0.08064601
14	0xbdb878c4	-0.09007409
15	0x3de81695	0.11332432
16	0xbd86354d	-0.06553135
17	0x3d78de1c	0.060758695
18	0xba73cba3	-0.00093000586
19	0xbcf6e74c	-0.030139588
20	0xbe6f03e4	-0.23341328
21	0x3e1527d3	0.14565973
22	0xbb3a91d0	-0.0028468259
23	0xbe4532a3	-0.19257598
24	0x3c15fbba	0.009154255
25	0xbda35ed6	-0.07977073
26	0xbe648018	-0.22314489
27	0xbcbebb8c	-0.023282789
28	0xbd48205e	-0.048858993
29	0x3def507f	0.11685275
30	0xbdcc5f81	-0.099791534
31	0x3dbd6e4c	0.09249553
32	0xbdfdbadf	-0.123891585
33	0xbd664fff	-0.056228634
34	0x3e00b36e	0.12568447
35	0xbd27df97	-0.040984716
36	0x3e0112ed	0.12604876
37	0xbd57c4a1	-0.052677754
38	0x3e1ac45d	0.15113969
39	0x3d2e0106	0.042481445
40	0xbc9fd4b8	-0.019510612
41	0xbda6482a	-0.08119233
42	0x3d5d5ef9	0.05404565
43	0xbe16f9d7	-0.14743744
44	0x3d72aa3a	0.059244372
45	0x3daf6bc8	0.085654795
46	0x3e0255b6	0.12728009
47	0x3dc20fb7	0.094756536
48	0xbd38378f	-0.04497486
49	0xbda977f4	-0.08274832
50	0xbe26597f	-0.16245078
51	0x3e063e91	0.13109805
52	0xbb8ede0f	-0.0043599675
53	0x3c91d536	0.017801862
54	0xbe1a9fb1	-0.1509998
55	0xbc2452e9	-0.010029533
56	0xbdecaa9a	-0.11555977
57	0x3e3beb35	0.18351443
58	0x3bbebc05	0.0058207535
59	0x3c290f96	0.010318657
60	0xbd6fd9b2	-0.05855722
61	0x3e2aacb9	0.16667451
62	0xbda823d7	-0.08209961
63	0x3d89607f	0.06707858
64	0xbdccfa12	-0.100086346
65	0x3e053d4d	0.13011666
66	0xbe019ceb	-0.12657516
67	0x3c0ecaff	0.00871539
68	0xbdbd4e04	-0.09243396
69	0x3c466c96	0.01211085
70	0x3bac53fa	0.005259034
71	0x3c9b8fe9	0.01898952
72	0x3d81ff9d	0.063475825
73	0xbe037d25	-0.12840708
74	0x3d6e1535	0.058125693
75	0xbe2ef008	-0.17083752
76	0xbe0eb7d1	-0.13937308
77	0x3d938a02	0.07204057
78	0x3dd270f1	0.10275448
79	0x3cb6dacc	0.022321127
80	0x3d758788	0.059943706
81	0x3d040aff	0.03223705
82	0x3c85a0ee	0.016312089
83	0xbe0ef67d	-0.13961215
84	0x3d4a3dee	0.049375467
85	0x3de4b62f	0.11167561
86	0x3de2ed99	0.110804744
87	0x3d4a06bd	0.049322832
88	0xbcbcdca2	-0.023054425
89	0xbd3301ce	-0.043702893
90	0xbd74d311	-0.0597716
91	0xbd0b1af2	-0.033961244
92	0x3d84f712	0.064924374
93	0x3dc26db3	0.0949358
94	0x3d176e16	0.03697022
95	0xbd0ac398	-0.03387794
96	0x3ca3059a	0.019900132
97	0xbdbf9b8c	-0.0935584
98	0xbda21382	-0.07913877
99	0xbd65b7a9	-0.056083355
100	0x3daf116b	0.08548244
101	0xbd9ac3d4	-0.075568825
102	0x3df1cb40	0.11806345
103	0x3ddc92a4	0.10770157
104	0xbcf50805	-0.02991105
105	0x3d9a989c	0.07548639
106	0x3be1aceb	0.0068870685
107	0x3d6b3991	0.057427946
108	0xbdef35fa	-0.11680217
109	0xbdac845d	-0.08423684
110	0x3cfabab6	0.030606609
111	0x3d8108d2	0.063005105
112	0xbdb2920b	-0.08719262
113	0xbdfbcbb9	-0.122947164
114	0xbd8580f4	-0.065187365
115	0xbc070886	-0.008241778
116	0xbe05efca	-0.13079754
117	0xbbd9bd90	-0.006644912
118	0x3d991a75	0.074757494
119	0x3dc05f5c	0.09393188
120	0x3df86385	0.12128357
121	0xbdd6bb70	-0.104849696
122	0xbdee008d	-0.11621199
123	0x3e1415b5	0.14461406
124	0x3d2d44aa	0.04230181
125	0x3e11f7c1	0.14254667
126	0x3d862b0a	0.06551178
127	0xbe211422	-0.15730336
128	0x3d723990	0.059136927
129	0xbdb64cfd	-0.08901403
130	0xbe0254e5	-0.12727697
131	0xbe11815f	-0.14209507
132	0xbc72085d	-0.014772502
133	0xbdbaf7d0	-0.09129298
134	0xbb8f6ade	-0.0043767532
135	0xbdc0c96b	-0.094134174
136	0x3dbd7f3a	0.09252782
137	0x3c7e63f5	0.015526761
138	0x3dcc1f39	0.09966893
139	0xbc96c7d3	-0.01840583
140	0xbd999222	-0.07498576
141	0x3d128742	0.035773523
142	0x3cf77db1	0.030211302
143	0x3e196f84	0.14983946
144	0xbc23db11	-0.01000096
145	0x3e13746c	0.1439988
146	0x3c39f2d5	0.0113494
147	0x3d8c09f2	0.068378344
148	0x3dffac48	0.12484032
149	0x3de3cb28	0.11122733
150	0x3c3fbf98	0.011703394
151	0x3e0668c5	0.13125904
152	0xbcc16b87	-0.023610843
153	0xbd312dd6	-0.043256603
154	0xbd84ecd0	-0.06490481
155	0x3d45447a	0.048161007
156	0xbd9df733	-0.07713165
157	0xbe104980	-0.14090538
158	0xbdc931f8	-0.09823984
159	0x3e588947	0.21146117
160	0x3de1c7b1	0.11024416
161	0xbb5a4b42	-0.0033309017
162	0xbd1f8a7c	-0.03895043
163	0x3e09abd2	0.1344445
164	0x3daadc53	0.08342805
165	0xbdbefd8f	-0.09325706
166	0xbce423c3	-0.027849084
167	0xbd98fdc5	-0.07470278
168	0x3d9ff2e2	0.07809998
169	0x3dac5ade	0.08415769
170	0x3c037020	0.008022338
171	0x3d686adb	0.05674253
172	0x3b32c298	0.0027276631
173	0xbe05d2ce	-0.13068697
174	0x3d384790	0.044990122
175	0xbd1c9f90	-0.03823811
176	0xbc94335c	-0.018090896
177	0x3d6cb5ce	0.05779057
178	0xbdf7a908	-0.12092787
179	0x3ddb6de1	0.10714317
180	0x3c3fefb4	0.0117148645
181	0x3c80dc57	0.015730066
182	0xbdbda7a9	-0.09260494
183	0x3d992d00	0.07479286
184	0xbc1eca93	-0.009691852
185	0x3ba5e656	0.0050628586
186	0xbdc8f045	-0.09811453
187	0xbd9910ce	-0.07473908
188	0x3dfda48f	0.12384903
189	0xbdaebb7e	-0.08531855
190	0xbd9bd038	-0.07608074
191	0x3d15ae75	0.03654333
192	0x3c56f4c1	0.013119877
193	0xbdd4858e	-0.10377036
194	0xbcfb5f0f	-0.030684976
195	0x3cd5db3c	0.026105516
196	0xbc847daf	-0.016173212
197	0x3e2a22e1	0.16614868
198	0x3d539de8	0.051664263
199	0x3e3878ca	0.18014827
200	0x3e010637	0.12600027
201	0x3d962575	0.07331363
202	0x3c28b46e	0.010296924
203	0xbd45df0e	-0.048308425
204	0x3bd4d6a1	0.0064953123
205	0xbe226af8	-0.15861118
206	0xbdd64844	-0.10463002
207	0xb8f86648	-0.00011844613
208	0xbcb29911	-0.021801503
209	0x3d4b1a9e	0.04958593
210	0x3de4e2b4	0.11176053
211	0x3dd855eb	0.105632626
212	0xbdab2b86	-0.08357911
213	0x3dc4e412	0.096138135
214	0x3dfbeccc	0.12301025
215	0xbe1ce876	-0.15323052
216	0xbcc8cf0f	-0.024512796
217	0xbca59175	-0.02021096
218	0xbd8849c5	-0.066546954
219	0xbdde561d	-0.108562686
220	0x3d9128a2	0.07087828
221	0xbdc5d639	-0.0966
222	0xbd895f65	-0.06707648
223	0xbc2373f0	-0.009976372
224	0xbddffde2	-0.10937096
225	0x3e124c0d	0.14286824
226	0x3de9ea22	0.114216104
227	0x3db2b07b	0.08725067
228	0x3cf1dd63	0.02952451
229	0xbe1f3d26	-0.1555067
230	0xbdf998e2	-0.12187363
231	0x3dc409d4	0.09572187
232	0x3d351395	0.044208128
233	0x3e081f8c	0.13293284
234	0xbe1bdd3c	-0.15221113
235	0xbe426c9a	-0.1898674
236	0xbe308b5a	-0.17240658
237	0xbd413fa6	-0.04717984
238	0xba3012a7	-0.00067166466
239	0xbd0e5220	-0.03474629
240	0xbd9ce0b1	-0.07660044
241	0xbd7ac6e6	-0.06122484
242	0x3e244fc4	0.16046053
243	0xbdfcf5b7	-0.12351554
244	0xbdaaa557	-0.08332317
245	0x3d36255f	0.044469234
246	0x3dc8493f	0.097795956
247	0xbde35283	-0.11099722
248	0xbe1abde1	-0.15111496
249	0xbde97aed	-0.11400399
250	0xbcd6a3f8	-0.026201233
251	0x3ccee370	0.025254935
252	0xbd3f457d	-0.04669713
253	0x3e17746f	0.1479051
254	0x3dc80716	0.097669765
255	0x3bc9e04f	0.006160773

arith.constant3 f4 [2]
0	0xbcb381dd	-0.02191251
1	0x3cb381fc	0.021912567

arith.constant4 f4 [64]
0	0x3b62feb6	0.0034636683
1	0x3bfe6ef1	0.00776469
2	0x3ca3be8a	0.019988317
3	0x3d2c86a5	0.042120595
4	0x3c1fd016	0.009754201
5	0x00000000	0.0
6	0x3d080bb1	0.033214275
7	0x00000000	0.0
8	0x3cdc0c93	0.026861465
9	0x3d0bd8a3	0.034142148
10	0x3d1ff5c2	0.039052732
11	0xbadb0602	-0.0016710164
12	0xbb27d603	-0.0025609739
13	0x3c061e40	0.008185923
14	0x3c733b92	0.014845746
15	0x3d3d4edc	0.046217784
16	0x3cee41f9	0.029084193
17	0x3c53b08c	0.01292051
18	0xbc521e24	-0.012824569
19	0x3c86203d	0.016372794
20	0xbb9ec09b	-0.0048447377
21	0x3d020023	0.03173841
22	0x38ab39d8	8.16469e-05
23	0x3d1e95ee	0.038717203
24	0x3d25632c	0.04037778
25	0xbc31ae2c	-0.0108447485
26	0x3cecbba9	0.028898077
27	0xbc8813bd	-0.016610974
28	0x3c4659da	0.012106383
29	0x3c259d7b	0.010108347
30	0x3d2d8f5c	0.042373046
31	0x3c079f70	0.008277759
32	0xbcca98ab	-0.024731
33	0xbcf7b839	-0.030239211
34	0xbb93100c	-0.004487997
35	0x00000000	0.0
36	0x3d17e683	0.037085067
37	0x3cafcd12	0.02146009
38	0xbc352843	-0.011056962
39	0x3c13c643	0.009019437
40	0x3d0c804e	0.03430205
41	0x00000000	0.0
42	0x3cfa0929	0.030521946
43	0xb136549f	-2.6532587e-09
44	0x3c1835f4	0.009290207
45	0x3be91c12	0.007113942
46	0x3c6f29b5	0.014597346
47	0x3c662fa9	0.014049449
48	0x00000000	0.0
49	0x3c967fd8	0.018371508
50	0xbca4c5be	-0.020113822
51	0xbc84b092	-0.016197477
52	0x3cb86694	0.02250985
53	0x3d0c7d28	0.034299046
54	0x3d34f69b	0.044180494
55	0x3ce5c4b5	0.028047899
56	0x3cfe8bee	0.031072583
57	0x3d39ca53	0.045358967
58	0x3c650d24	0.013980184
59	0x3be9d6d1	0.007136204
60	0x00000000	0.0
61	0x3a1df561	0.0006025639
62	0x3d119204	0.035539642
63	0x3d2b66d9	0.04184613

arith.constant5 f4 [2, 64]
0	0x3ea17ddf	0.31541345
1	0x3eb200e5	0.34766307
2	0x3e59125c	0.2119841
3	0x3de4c67b	0.1117067
4	0x3e917427	0.2840893
5	0x3c64e0c0	0.0139696
6	0xbe8d42bd	-0.2758998
7	0x3c96cd30	0.018408388
8	0x3ecb14d0	0.39664316
9	0xbe7c708d	-0.2465231
10	0xbd33852d	-0.04382818
11	0xbe9af169	-0.30262306
12	0x3d45dfb0	0.04830903
13	0x3eb5f551	0.35538724
14	0xbe0dc14a	-0.13843265
15	0x3eb08e8a	0.3448375
16	0xbeb1db5d	-0.34737673
17	0x3d7c8528	0.061650425
18	0x3e0ede57	0.13952003
19	0x3e21ca9d	0.15799947
20	0x3e326ed1	0.17425086
21	0x3e062ac9	0.13102259
22	0x3ea959d6	0.33076352
23	0xbe762949	-0.24039187
24	0xbd9e57c8	-0.07731587
25	0x3c8f3228	0.017479971
26	0xbeaf269a	-0.34209138
27	0x3e2a48fe	0.16629407
28	0x3c0699f4	0.008215416
29	0x3e4ddb52	0.20103195
30	0x3d4cb4fd	0.04997729
31	0x3ed4ef27	0.4158871
32	0xbe7a5c12	-0.24449185
33	0xbe5b40f6	-0.214115
34	0xbdf6b764	-0.12046698
35	0x3e8faef2	0.2806316
36	0xbe79e48d	-0.24403591
37	0xbea0b0eb	-0.31384978
38	0x3e40edcc	0.18840712
39	0x3e9eac2b	0.3099073
40	0x3eee8248	0.46583772
41	0xbcf40be0	-0.029790819
42	0xbe88fc0e	-0.26754802
43	0xbe0b5b0c	-0.1360895
44	0xbd63a9ac	-0.055581734
45	0x3eb5fe02	0.35545355
46	0x3eab797d	0.33491126
47	0xbd81288f	-0.06306564
48	0x3e27220c	0.16321582
49	0x3d33ac1f	0.04386532
50	0x3ca8a19b	0.020584872
51	0xbe46ca0b	-0.19413011
52	0x3dd4c70a	0.10389526
53	0xbe929971	-0.28632692
54	0x3eae9d8a	0.34104568
55	0xbdc9f9b9	-0.09862084
56	0xbe84519b	-0.2584351
57	0xbd7ba198	-0.061433405
58	0xbe59b360	-0.21259832
59	0x3dc9cad0	0.098531365
60	0x3d582958	0.052773803
61	0x3eba1cb3	0.3635002
62	0xbe319d47	-0.17345153
63	0xbe8759a9	-0.26435593
64	0xbdfa92d9	-0.1223504
65	0xbeb430e6	-0.35193557
66	0xbe754671	-0.23952653
67	0xbe800338	-0.25002456
68	0xbecf2a33	-0.40461883
69	0xbe7fb734	-0.2497223
70	0xbda662cf	-0.08124315
71	0x3e05d4a4	0.13069397
72	0x3d9e68e9	0.07734854
73	0x3e0df39f	0.13862465
74	0x3e810b1b	0.25203785
75	0xbdd24cea	-0.102685764
76	0x3d8415f2	0.06449498
77	0xbe9e0100	-0.30860138
78	0xbc9c8e18	-0.019110724
79	0xbeb06541	-0.3445225
80	0x3d980be7	0.07424145
81	0xbe5d0169	-0.21582569
82	0x3e155a25	0.14585169
83	0xbeb947c6	-0.3618757
84	0x3e0cb999	0.13742675
85	0x3eabef20	0.33580875
86	0xbecd4061	-0.4008818
87	0xbdda0e3e	-0.10647248
88	0x3e8d7def	0.27635142
89	0x3cf37167	0.02971716
90	0x3dbe554e	0.09293614
91	0xbde430b1	-0.111421
92	0xbe996afe	-0.2996444
93	0xbe87ca7a	-0.26521665
94	0x3ea86775	0.3289143
95	0xbcd14f31	-0.025550457
96	0xbd844083	-0.06457617
97	0x3dd20e18	0.102565944
98	0x3ca3196c	0.019909583
99	0x3dd71050	0.10501158
100	0x3e0a9e01	0.13536836
101	0x3e3581b2	0.17725256
102	0xbc5c0809	-0.01342965
103	0xbec5283c	-0.3850726
104	0x3d5a5828	0.05330673
105	0x3de256fc	0.11051747
106	0x3d53f832	0.05175037
107	0x3e58c0ec	0.21167344
108	0x3e252f2c	0.16131276
109	0x3d90c128	0.07068092
110	0xbcd8542e	-0.026407328
111	0x3e31526d	0.17316599
112	0x3d6047f8	0.054756135
113	0x3e6b084a	0.22952381
114	0xbdb85c95	-0.090020336
115	0xbe425a03	-0.18979649
116	0xbe6c3367	-0.23066483
117	0x3e55c4d2	0.20875862
118	0x3e2c1571	0.16805054
119	0x3e4224c6	0.1895934
120	0x3eac5a3f	0.33662602
121	0x3e515438	0.20442283
122	0x3cb141de	0.021637853
123	0x3ea0d586	0.31412905
124	0xbe203727	-0.15646039
125	0xbeac2264	-0.33619988
126	0x3d1d349f	0.03838026
127	0x3bfc6c9e	0.007703378

arith.constant6 f4 [128]
0	0xbd1a80c1	-0.037720446
1	0x3cdda185	0.027054558
2	0xbcf20ddf	-0.02954763
3	0xbc22ad81	-0.009929062
4	0x3dda83ad	0.106696464
5	0x3bb3d50c	0.0054880437
6	0xbc520ee7	-0.012820936
7	0xbd406131	-0.04696769
8	0xbd003fa2	-0.031310685
9	0x3cd74eaf	0.026282636
10	0xbbfe650f	-0.007763512
11	0x3dd36a2c	0.10322985
12	0xbbc5677d	-0.0060242997
13	0xbcb18009	-0.021667497
14	0xbbed0eaa	-0.007234414
15	0xba838861	-0.0010035151
16	0xbc1b8464	-0.009492014
17	0xbbc3a0ed	-0.0059701116
18	0x3cebf18d	0.028801704
19	0x3dc263a7	0.094916634
20	0x3d97b4b2	0.07407512
21	0x3c2921c3	0.010322991
22	0xbbcf48aa	-0.006325801
23	0xbd008481	-0.031376366
24	0x3ce67236	0.028130632
25	0xbc0712b3	-0.008244204
26	0xbc154ef9	-0.009113067
27	0x3d0680ae	0.032837562
28	0xbc710eaa	-0.014712969
29	0x3b18d261	0.0023318755
30	0xbd07a44f	-0.03311568
31	0xbc22d6f3	-0.009938943
32	0xbd5e37a7	-0.054252293
33	0x3c5e15e6	0.013555026
34	0xbcfa3862	-0.030544464
35	0xbd351c55	-0.044216473
36	0x3c85eeb3	0.016349172
37	0xbc3ebf7c	-0.011642333
38	0xbb3baa2c	-0.0028635366
39	0xbcdf7556	-0.02727763
40	0xbc45a204	-0.012062553
41	0xbc0969d6	-0.00838705
42	0xbc334f4f	-0.010944202
43	0xbbca01a3	-0.006164746
44	0x3d12e425	0.035862107
45	0xbc12c4a5	-0.0089580165
46	0xbc745c95	-0.014914651
47	0xbccaf570	-0.024775237
48	0xbc6a508a	-0.014301429
49	0xbd08d36a	-0.033404745
50	0xbb95d356	-0.0045723123
51	0xbc8153e8	-0.01578708
52	0xbd110527	-0.035405304
53	0xbbbd9ba9	-0.0057863784
54	0xbd3cb4eb	-0.046070974
55	0x3c24ba27	0.010054148
56	0xbb753f60	-0.0037421808
57	0xbd2a2a03	-0.04154397
58	0xbc77f008	-0.0151329115
59	0xbd7f2780	-0.06229353
60	0xbb9f8b05	-0.0048688673
61	0xbd1bb2aa	-0.038012184
62	0x399a0c21	0.00029382206
63	0xbb7b7d2a	-0.0038374164
64	0x3d92d022	0.071686044
65	0x3c73fed9	0.014892303
66	0xbbdc60bc	-0.006725399
67	0xbd1f8184	-0.038941875
68	0xbd010e67	-0.031507876
69	0xbc2a7293	-0.010403293
70	0x3cd427e4	0.025897928
71	0xbd27294a	-0.04081086
72	0xbc5779eb	-0.013151626
73	0xbcb29279	-0.02179836
74	0xbcf19d26	-0.02949388
75	0xbd033019	-0.03202829
76	0x3d9b0c0a	0.07570656
77	0xbbf54cf4	-0.00748598
78	0xbc211a55	-0.009832938
79	0x3d9c6ec8	0.07638317
80	0xbd1f995d	-0.038964618
81	0xbbe4683c	-0.0069704335
82	0xbcbc7d02	-0.023008827
83	0xbcf6f5f7	-0.030146582
84	0xbd25dfdb	-0.04049669
85	0x3d3d2418	0.046177
86	0x3cead306	0.028665077
87	0xbbda5bc3	-0.006663771
88	0x3cccd19e	0.025002297
89	0xbbe1f9f5	-0.0068962523
90	0xbc310faf	-0.010806962
91	0xbd3cab26	-0.046061657
92	0xbc8d9199	-0.01728134
93	0xbba9a409	-0.005177025
94	0xbbfb4a7b	-0.007668791
95	0xbd1783f3	-0.03699107
96	0xbd11fa67	-0.035639193
97	0x3d95d243	0.07315495
98	0x3c12c63e	0.008958397
99	0xbb8eac27	-0.0043540183
100	0x3cd09618	0.025462195
101	0xbc11e931	-0.008905695
102	0xbd804ce8	-0.06264669
103	0xbd07591a	-0.03304396
104	0x3c35db2c	0.011099618
105	0x3caeaf86	0.02132393
106	0x3d1042cc	0.035219952
107	0x3d8362cb	0.06415328
108	0xbd31a46b	-0.04336969
109	0xbbb8dfe1	-0.005641923
110	0xbcdcec06	-0.026968013
111	0xbb3fc906	-0.0029264106
112	0xbcc00bc5	-0.023443112
113	0xbbf9f278	-0.0076277815
114	0x3c243009	0.010021218
115	0xbc6517b7	-0.013982705
116	0x3dc5dc6d	0.096611835
117	0xbd207441	-0.03917337
118	0xbd32d70d	-0.04366212
119	0xbd6533c2	-0.055957563
120	0xbcdeea86	-0.027211439
121	0xbc6c54f4	-0.014424551
122	0xbd1a88c7	-0.037728097
123	0xbbd60e0f	-0.0065324376
124	0xbd21a36d	-0.039462496
125	0xbbf3e72f	-0.0074433307
126	0x3c29d963	0.01036677
127	0xbc31f876	-0.01086246

arith.constant7 f4 [64]
0	0x3cfb176f	0.030650822
1	0xbd1e5f33	-0.038665008
2	0x3d16a2c2	0.03677631
3	0xbd3f2f29	-0.046675835
4	0xbd773150	-0.060349762
5	0xbd502dca	-0.050824918
6	0x3c5d2e51	0.013499812
7	0xbd5e789e	-0.05431425
8	0x3d2cf81c	0.042228803
9	0x3d469f05	0.048491497
10	0xbc04f7e3	-0.008115741
11	0xbd557a78	-0.05211875
12	0xbd933b69	-0.07189066
13	0xbd5b4d9a	-0.053540803
14	0xbd5ee629	-0.054418717
15	0x3cea37f8	0.028591141
16	0xbd54e77a	-0.051978566
17	0x3d1ea6ee	0.038733415
18	0x3b91505e	0.0044346293
19	0x3d36917c	0.04457234
20	0xbd5c1e1c	-0.053739652
21	0x3cd53ab1	0.026028963
22	0xbc3722e5	-0.011177753
23	0xbd884b3b	-0.06654974
24	0xbd4e159f	-0.05031359
25	0x3d22d3f5	0.03975292
26	0xbd57bd02	-0.052670486
27	0x3cf4337b	0.029809704
28	0xbcb387e7	-0.02191539
29	0xbd725372	-0.05916161
30	0xbd43328c	-0.047655627
31	0xbc20cfb4	-0.009815145
32	0xbd8247ce	-0.06361352
33	0xbdaaccfb	-0.08339878
34	0xbd4cfa92	-0.05004365
35	0xbd53740d	-0.051624347
36	0x3d03348c	0.032032534
37	0xbd6c531e	-0.057696454
38	0xbd098b56	-0.033580147
39	0x3c241c57	0.010016522
40	0xbc42ea5f	-0.011896699
41	0xbbe3dd7c	-0.006953893
42	0xbd4a4fa1	-0.049392346
43	0x3bfe5038	0.0077610277
44	0x3ce32faa	0.027732689
45	0xbc7d067b	-0.01544344
46	0xbce1e88d	-0.02757671
47	0xbd1e1b88	-0.038600475
48	0x3ca048a1	0.019565882
49	0xbcba999d	-0.022778327
50	0x3c1457cc	0.0090541355
51	0xbd657239	-0.056017134
52	0xbc97584e	-0.018474724
53	0xbd20efb4	-0.0392911
54	0xbac8ac22	-0.0015310089
55	0xbd61b7a1	-0.055106763
56	0xbd4ee1aa	-0.05050818
57	0xbda92a76	-0.08260052
58	0xbd18d1cb	-0.03730945
59	0xbccbb973	-0.024868703
60	0xbd94add5	-0.07259718
61	0x3ca2dc8a	0.019880552
62	0xbd564095	-0.052307684
63	0xbd3977d6	-0.0452803

tfl.pseudo_qconst i1 [128, 3, 3, 64]
0	0xd0	-48
1	0xff	-1
2	0xfb	-5
3	0xe6	-26
4	0xf6	-10
5	0x18	24
6	0x13	19
7	0x08	8
8	0x17	23
9	0xdf	-33
10	0xe4	-28
11	0xfc	-4
12	0x16	22
13	0x02	2
14	0x18	24
15	0x0c	12
16	0x07	7
17	0x09	9
18	0x24	36
19	0xf3	-13
20	0x0c	12
21	0xd8	-40
22	0xe9	-23
23	0x0f	15
24	0x03	3
25	0xcf	-49
26	0x35	53
27	0xfb	-5
28	0xfa	-6
29	0x0d	13
30	0x24	36
31	0x07	7
32	0xfa	-6
33	0x0c	12
34	0xfa	-6
35	0x30	48
36	0xe3	-29
37	0xe9	-23
38	0x1d	29
39	0x05	5
40	0x00	0
41	0xf0	-16
42	0xf8	-8
43	0x19	25
44	0x12	18
45	0x02	2
46	0xe5	-27
47	0x13	19
48	0x34	52
49	0x12	18
50	0xdd	-35
51	0xfc	-4
52	0x09	9
53	0x23	35
54	0xcf	-49
55	0x13	19
56	0xe4	-28
57	0x1d	29
58	0xcb	-53
59	0x01	1
60	0x0d	13
61	0xe8	-24
62	0xf1	-15
63	0xc1	-63
64	0xd8	-40
65	0x1b	27
66	0x13	19
67	0x17	23
68	0x2e	46
69	0x17	23
70	0xc5	-59
71	0x21	33
72	0xea	-22
73	0xe2	-30
74	0xde	-34
75	0x2a	42
76	0x06	6
77	0x25	37
78	0x12	18
79	0x11	17
80	0x30	48
81	0x15	21
82	0xfc	-4
83	0xeb	-21
84	0x0d	13
85	0xe8	-24
86	0x1f	31
87	0x22	34
88	0x13	19
89	0xd6	-42
90	0x03	3
91	0x09	9
92	0x23	35
93	0x2c	44
94	0x1b	27
95	0x10	16
96	0x17	23
97	0x25	37
98	0x07	7
99	0xed	-19
100	0x0d	13
101	0x01	1
102	0x1b	27
103	0xd1	-47
104	0xe3	-29
105	0x1d	29
106	0x29	41
107	0x20	32
108	0xf9	-7
109	0x2a	42
110	0xe6	-26
111	0xd7	-41
112	0x15	21
113	0xcd	-51
114	0xf7	-9
115	0xf6	-10
116	0xc5	-59
117	0xfb	-5
118	0xe7	-25
119	0xf0	-16
120	0xe5	-27
121	0xeb	-21
122	0xd2	-46
123	0x22	34
124	0x41	65
125	0xc5	-59
126	0x2a	42
127	0xca	-54
128	0xf4	-12
129	0x00	0
130	0xcf	-49
131	0xf6	-10
132	0x25	37
133	0x22	34
134	0xff	-1
135	0x08	8
136	0x0c	12
137	0xf4	-12
138	0xdd	-35
139	0xf0	-16
140	0xff	-1
141	0x0e	14
142	0x38	56
143	0xf4	-12
144	0x31	49
145	0x0f	15
146	0x04	4
147	0xf1	-15
148	0xf5	-11
149	0xee	-18
150	0x0d	13
151	0x31	49
152	0x06	6
153	0xdb	-37
154	0xf6	-10
155	0x0d	13
156	0xf5	-11
157	0xf2	-14
158	0xf5	-11
159	0x0d	13
160	0x1b	27
161	0x1c	28
162	0xfa	-6
163	0x35	53
164	0xed	-19
165	0xea	-22
166	0x30	48
167	0xd0	-48
168	0xc5	-59
169	0xf8	-8
170	0x1c	28
171	0x1d	29
172	0xe8	-24
173	0xec	-20
174	0xab	-85
175	0x15	21
176	0x14	20
177	0xf0	-16
178	0x00	0
179	0xfa	-6
180	0xbc	-68
181	0xe1	-31
182	0xca	-54
183	0x13	19
184	0xd4	-44
185	0xf8	-8
186	0xb2	-78
187	0xf0	-16
188	0x10	16
189	0xeb	-21
190	0x07	7
191	0xad	-83
192	0xd2	-46
193	0xf6	-10
194	0xe8	-24
195	0xfc	-4
196	0x13	19
197	0xf7	-9
198	0x0d	13
199	0x39	57
200	0x11	17
201	0xc1	-63
202	0xe0	-32
203	0x04	4
204	0x20	32
205	0xf4	-12
206	0x31	49
207	0x10	16
208	0x14	20
209	0xc2	-62
210	0x2a	42
211	0xd1	-47
212	0x32	50
213	0xde	-34
214	0x0b	11
215	0x01	1
216	0x04	4
217	0xfd	-3
218	0x1f	31
219	0xd5	-43
220	0xdf	-33
221	0xfc	-4
222	0x24	36
223	0x09	9
224	0x1d	29
225	0x4f	79
226	0xe0	-32
227	0x1d	29
228	0x13	19
229	0xea	-22
230	0x1b	27
231	0x0e	14
232	0xef	-17
233	0x07	7
234	0x45	69
235	0xf8	-8
236	0xef	-17
237	0x1f	31
238	0xe6	-26
239	0x1f	31
240	0xfe	-2
241	0xc3	-61
242	0xcc	-52
243	0xd9	-39
244	0xee	-18
245	0xf7	-9
246	0xdc	-36
247	0x25	37
248	0x10	16
249	0x21	33
250	0x02	2
251	0xdc	-36
252	0x58	88
253	0xd0	-48
254	0x06	6
255	0xae	-82

tfl.pseudo_qconst1 i1 [64, 3, 3, 32]
0	0xdf	-33
1	0xd8	-40
2	0x94	-108
3	0x0d	13
4	0xe9	-23
5	0xf8	-8
6	0x0c	12
7	0x4c	76
8	0xec	-20
9	0xf7	-9
10	0xd2	-46
11	0xd8	-40
12	0x0e	14
13	0xfd	-3
14	0xc0	-64
15	0xf3	-13
16	0xf7	-9
17	0xbb	-69
18	0xbf	-65
19	0x21	33
20	0xcd	-51
21	0xf7	-9
22	0xe7	-25
23	0x1c	28
24	0x23	35
25	0xf7	-9
26	0xb8	-72
27	0x04	4
28	0x0a	10
29	0x14	20
30	0xe8	-24
31	0x04	4
32	0x17	23
33	0x18	24
34	0xdf	-33
35	0x0d	13
36	0xf9	-7
37	0xd9	-39
38	0x0a	10
39	0x36	54
40	0xe1	-31
41	0xc9	-55
42	0x09	9
43	0xf3	-13
44	0xf8	-8
45	0x01	1
46	0x82	-126
47	0x0a	10
48	0x1e	30
49	0xd2	-46
50	0x0f	15
51	0x31	49
52	0x08	8
53	0xd2	-46
54	0xfe	-2
55	0xe7	-25
56	0xf2	-14
57	0xe7	-25
58	0xa1	-95
59	0x28	40
60	0x31	49
61	0x0a	10
62	0xc9	-55
63	0xd1	-47
64	0xcf	-49
65	0xf9	-7
66	0xb6	-74
67	0x01	1
68	0xea	-22
69	0x2d	45
70	0xed	-19
71	0x03	3
72	0xfe	-2
73	0xfd	-3
74	0xf9	-7
75	0x1c	28
76	0x0f	15
77	0x0f	15
78	0xce	-50
79	0xee	-18
80	0xe8	-24
81	0xd4	-44
82	0xb8	-72
83	0xdf	-33
84	0xe7	-25
85	0xe5	-27
86	0x1c	28
87	0xe8	-24
88	0xe0	-32
89	0x25	37
90	0xd0	-48
91	0x14	20
92	0x21	33
93	0xfc	-4
94	0xe0	-32
95	0x1c	28
96	0x21	33
97	0xeb	-21
98	0xe3	-29
99	0x2d	45
100	0xd9	-39
101	0xc7	-57
102	0x38	56
103	0x3f	63
104	0xcc	-52
105	0xc8	-56
106	0x00	0
107	0xfd	-3
108	0xed	-19
109	0xfc	-4
110	0xcb	-53
111	0x1f	31
112	0x2a	42
113	0x25	37
114	0x04	4
115	0x1d	29
116	0x09	9
117	0x23	35
118	0xe1	-31
119	0xc8	-56
120	0x2a	42
121	0x05	5
122	0xe5	-27
123	0x08	8
124	0xed	-19
125	0xd4	-44
126	0x12	18
127	0x24	36
128	0xd7	-41
129	0xef	-17
130	0x9d	-99
131	0x01	1
132	0xe4	-28
133	0x02	2
134	0x17	23
135	0xf5	-11
136	0xf5	-11
137	0xd3	-45
138	0x31	49
139	0x18	24
140	0xe8	-24
141	0xe0	-32
142	0xbc	-68
143	0x10	16
144	0x1b	27
145	0x17	23
146	0x07	7
147	0x21	33
148	0xde	-34
149	0x07	7
150	0xf2	-14
151	0xf3	-13
152	0xd6	-42
153	0x2e	46
154	0xcd	-51
155	0xdf	-33
156	0x1b	27
157	0x2d	45
158	0xe9	-23
159	0xf6	-10
160	0x33	51
161	0x48	72
162	0xf4	-12
163	0x1c	28
164	0x0c	12
165	0x18	24
166	0x36	54
167	0xf2	-14
168	0x08	8
169	0x08	8
170	0xe4	-28
171	0xdf	-33
172	0xd5	-43
173	0xf8	-8
174	0xd7	-41
175	0x14	20
176	0xc5	-59
177	0x10	16
178	0xe5	-27
179	0x06	6
180	0xe0	-32
181	0x24	36
182	0xdc	-36
183	0x0d	13
184	0xcf	-49
185	0x20	32
186	0x95	-107
187	0x2c	44
188	0xde	-34
189	0xc9	-55
190	0xbc	-68
191	0x2c	44
192	0x22	34
193	0x12	18
194	0xb0	-80
195	0x13	19
196	0xfd	-3
197	0xd0	-48
198	0x14	20
199	0x3a	58
200	0xf3	-13
201	0xcf	-49
202	0x31	49
203	0xe3	-29
204	0x07	7
205	0x1f	31
206	0xbd	-67
207	0x03	3
208	0xee	-18
209	0xa8	-88
210	0x0d	13
211	0x27	39
212	0xf5	-11
213	0xe7	-25
214	0xee	-18
215	0x11	17
216	0x0a	10
217	0x1c	28
218	0xa0	-96
219	0x0c	12
220	0x05	5
221	0x20	32
222	0x15	21
223	0x37	55
224	0x3c	60
225	0x2f	47
226	0x8f	-113
227	0x13	19
228	0xfd	-3
229	0x2d	45
230	0x44	68
231	0xe5	-27
232	0x27	39
233	0x0f	15
234	0xdb	-37
235	0xcb	-53
236	0xe2	-30
237	0xee	-18
238	0xce	-50
239	0xc2	-62
240	0x1a	26
241	0xca	-54
242	0xfb	-5
243	0x31	49
244	0xf7	-9
245	0xeb	-21
246	0x25	37
247	0x23	35
248	0xf4	-12
249	0xdd	-35
250	0x81	-127
251	0xdb	-37
252	0x29	41
253	0x3a	58
254	0x22	34
255	0xe3	-29

tfl.pseudo_qconst2 i1 [64, 128]
0	0x0c	12
1	0xf7	-9
2	0x16	22
3	0x03	3
4	0x34	52
5	0xce	-50
6	0x0c	12
7	0x0d	13
8	0x0c	12
9	0xc9	-55
10	0xde	-34
11	0x45	69
12	0x2b	43
13	0xe4	-28
14	0x20	32
15	0x29	41
16	0x19	25
17	0x19	25
18	0x1c	28
19	0x30	48
20	0x2a	42
21	0x10	16
22	0xed	-19
23	0x27	39
24	0x23	35
25	0xbe	-66
26	0x1f	31
27	0xdb	-37
28	0x26	38
29	0xef	-17
30	0x04	4
31	0xec	-20
32	0x8f	-113
33	0x1b	27
34	0xf3	-13
35	0x00	0
36	0xee	-18
37	0x21	33
38	0xdc	-36
39	0xf2	-14
40	0x2b	43
41	0x09	9
42	0xbd	-67
43	0x1b	27
44	0x1e	30
45	0x2f	47
46	0x1a	26
47	0xd0	-48
48	0xfc	-4
49	0xbb	-69
50	0xf5	-11
51	0xd8	-40
52	0xe0	-32
53	0xec	-20
54	0x05	5
55	0xc6	-58
56	0xce	-50
57	0xf0	-16
58	0xee	-18
59	0x81	-127
60	0x24	36
61	0x34	52
62	0xc9	-55
63	0xf5	-11
64	0x49	73
65	0xf5	-11
66	0xde	-34
67	0x30	48
68	0xb2	-78
69	0xf8	-8
70	0x27	39
71	0x40	64
72	0xbb	-69
73	0xdc	-36
74	0x2d	45
75	0x2c	44
76	0x00	0
77	0x06	6
78	0xe6	-26
79	0x3c	60
80	0x29	41
81	0xc3	-61
82	0xd8	-40
83	0x14	20
84	0xff	-1
85	0xff	-1
86	0x0c	12
87	0xd0	-48
88	0x1a	26
89	0xda	-38
90	0xfb	-5
91	0xa9	-87
92	0x02	2
93	0x2b	43
94	0xfc	-4
95	0x01	1
96	0x43	67
97	0xf0	-16
98	0xe3	-29
99	0x1b	27
100	0x0f	15
101	0x0d	13
102	0xbe	-66
103	0x35	53
104	0x06	6
105	0x0b	11
106	0x08	8
107	0xfb	-5
108	0x3d	61
109	0xe8	-24
110	0xdd	-35
111	0x1c	28
112	0xfa	-6
113	0x2b	43
114	0x0a	10
115	0xd9	-39
116	0xf3	-13
117	0x39	57
118	0x9d	-99
119	0xd4	-44
120	0xed	-19
121	0xfd	-3
122	0xee	-18
123	0x0f	15
124	0xe5	-27
125	0x14	20
126	0xed	-19
127	0xee	-18
128	0xf8	-8
129	0x11	17
130	0xdc	-36
131	0xeb	-21
132	0x44	68
133	0xc3	-61
134	0xe7	-25
135	0x96	-106
136	0x01	1
137	0x19	25
138	0xed	-19
139	0x30	48
140	0x08	8
141	0xaa	-86
142	0x14	20
143	0x19	25
144	0x08	8
145	0xda	-38
146	0xe4	-28
147	0x30	48
148	0xea	-22
149	0xca	-54
150	0x0c	12
151	0x0f	15
152	0x25	37
153	0xf1	-15
154	0x2d	45
155	0x07	7
156	0xe4	-28
157	0xe5	-27
158	0x17	23
159	0xe5	-27
160	0xa5	-91
161	0xff	-1
162	0x14	20
163	0xff	-1
164	0x1c	28
165	0x1d	29
166	0x02	2
167	0x1f	31
168	0x29	41
169	0xf6	-10
170	0x0d	13
171	0xe4	-28
172	0xf7	-9
173	0xfe	-2
174	0x04	4
175	0x26	38
176	0xf5	-11
177	0x90	-112
178	0xd7	-41
179	0xd5	-43
180	0x23	35
181	0xe8	-24
182	0xf5	-11
183	0xf5	-11
184	0xe2	-30
185	0xff	-1
186	0xdd	-35
187	0x81	-127
188	0xde	-34
189	0xf2	-14
190	0xe4	-28
191	0xf7	-9
192	0x1f	31
193	0xf4	-12
194	0xf1	-15
195	0x3b	59
196	0xb6	-74
197	0xe9	-23
198	0x1b	27
199	0x38	56
200	0xcb	-53
201	0x33	51
202	0x00	0
203	0x0b	11
204	0x14	20
205	0xe9	-23
206	0xdb	-37
207	0x42	66
208	0x38	56
209	0x15	21
210	0x32	50
211	0x07	7
212	0x2c	44
213	0x38	56
214	0xdb	-37
215	0xe7	-25
216	0xf2	-14
217	0x0d	13
218	0x2a	42
219	0xac	-84
220	0x04	4
221	0x27	39
222	0xdd	-35
223	0xe8	-24
224	0xe3	-29
225	0x03	3
226	0xdb	-37
227	0x0c	12
228	0xe3	-29
229	0xfc	-4
230	0x8b	-117
231	0x2b	43
232	0x22	34
233	0xd5	-43
234	0xf6	-10
235	0x2e	46
236	0x2f	47
237	0xf5	-11
238	0xa6	-90
239	0x20	32
240	0x09	9
241	0xf1	-15
242	0xbe	-66
243	0x06	6
244	0x16	22
245	0x1d	29
246	0xa2	-94
247	0xac	-84
248	0x33	51
249	0xb8	-72
250	0xe3	-29
251	0x00	0
252	0xae	-82
253	0xe4	-28
254	0xe4	-28
255	0x01	1
